input shape = (1, 7, 7)

desconto por casa = -0.001

batch size = 32

modelo =
Model: "sequential"
_________________________________________________________________
Layer (type)                 Output Shape              Param #   
=================================================================
flatten (Flatten)            (None, 49)                0         
_________________________________________________________________
dense (Dense)                (None, 256)               12800     
_________________________________________________________________
dropout (Dropout)            (None, 256)               0         
_________________________________________________________________
dense_1 (Dense)              (None, 128)               32896     
_________________________________________________________________
dropout_1 (Dropout)          (None, 128)               0         
_________________________________________________________________
dense_2 (Dense)              (None, 64)                8256      
_________________________________________________________________
dropout_2 (Dropout)          (None, 64)                0         
_________________________________________________________________
dense_3 (Dense)              (None, 32)                2080      
_________________________________________________________________
dropout_3 (Dropout)          (None, 32)                0         
_________________________________________________________________
dense_4 (Dense)              (None, 4)                 132       
=================================================================
Total params: 56,164
Trainable params: 56,164
Non-trainable params: 0
_________________________________________________________________

metricas = ['accuracy']

numero de steps = [600000, 500000, 500000]

numero de steps de aquecimento = 1000

numero maximo de steps por episodio = 200

politicas =<rl.policy.LinearAnnealedP
…
